…
</pre></div>

</div>
</div>
</div>

<div class="output_wrapper">
<div class="output">


<div class="output_area">

<div class="prompt"></div>


<div class="output_subarea output_stream output_stderr output_text">
<pre>Downloading: &#34;https://download.pytorch.org/models/vgg11-bbd30ac9.pth&#34; to /root/.torch/models/vgg11-bbd30ac9.pth
100%|| 531456000/531456000 [00:09&lt;00:00, 56785192.56it/s]
</pre>
</div>
</div>

<div class="output_area">

<div class="prompt output_prompt">Out[7]:</div>




<div class="output_text output_subarea output_execute_result">
<pre>VGG(
  (features): Sequential(
    (0): Conv2d(3, 64, kernel_size=(3, 3), stride=(1, 1), padding=(1, 1))
    (1): ReLU(inplace)
    (2): MaxPool2d(kernel_size=2, stride=2, padding=0, dilation=1, ceil_mode=False)
    (3): Conv2d(64, 128, kernel_size=(3, 3), stride=(1, 1), padding=(1, 1))
    (4): ReLU(inplace)
    (5): MaxPool2d(kernel_size=2, stride=2, padding=0, dilation=1, ceil_mode=False)
    (6): Conv2d(128, 256, kernel_size=(3, 3), stride=(1, 1), padding=(1, 1))
    (7): ReLU(inplace)
    (8): Conv2d(256, 256, kernel_size=(3, 3), stride=(1, 1), padding=(1, 1))
    (9): ReLU(inplace)
    (10): MaxPool2d(kernel_size=2, stride=2, padding=0, dilation=1, ceil_mode=False)
    (11): Conv2d(256, 512, kernel_size=(3, 3), stride=(1, 1), padding=(1, 1))
    (12): ReLU(inplace)
    (13): Conv2d(512, 512, kernel_size=(3, 3), stride=(1, 1), padding=(1, 1))
    (14): ReLU(inplace)
    (15): MaxPool2d(kernel_size=2, stride=2, padding=0, dilation=1, ceil_mode=False)
    (16): Conv2d(512, 512, kernel_size=(3, 3), stride=(1, 1), padding=(1, 1))
    (17): ReLU(inplace)
    (18): Conv2d(512, 512, kernel_size=(3, 3), stride=(1, 1), padding=(1, 1))
    (19): ReLU(inplace)
    (20): MaxPool2d(kernel_size=2, stride=2, padding=0, dilation=1, ceil_mode=False)
  )
  (classifier): Sequential(
    (0): Linear(in_features=25088, out_features=4096, bias=True)
    (1): ReLU(inplace)
    (2): Dropout(p=0.5)
    (3): Linear(in_features=4096, out_features=4096, bias=True)
    (4): ReLU(inplace)
    (5): Dropout(p=0.5)
    (6): Linear(in_features=4096, out_features=1000, bias=True)
  )
)</pre>
</div>

</div>

</div>
</div>

</div>
<div class="cell border-box-sizing code_cell rendered">
<div class="input">
<div class="prompt input_prompt">In&nbsp;[8]:</div>
<div class="inner_cell">
    <div class="input_area">
<div class=" highlight hl-ipython3"><pre><span></span><span class="c1"># TODO: Build and train your network</span>
<span class="c1"># Freeze parameters so we don&#39;t backprop through them</span>
…
              <span class="s1">&#39;optimizer_state_dict&#39;</span><span class="p">:</span> <span class="kc">None</span><span class="p">,</span>
              <span class="s1">&#39;model_state_dict&#39;</span><span class="p">:</span> <span class="n">model</span><span class="o">.</span><span class="n">state_dict</span><span class="p">()}</span>
<span class="n">model</span>
</pre></div>

</div>
</div>
</div>

<div class="output_wrapper">
<div class="output">


<div class="output_area">

<div class="prompt output_prompt">Out[10]:</div>




<div class="output_text output_subarea output_execute_result">
<pre>VGG(
  (features): Sequential(
    (0): Conv2d(3, 64, kernel_size=(3, 3), stride=(1, 1), padding=(1, 1))
    (1): ReLU(inplace)
    (2): MaxPool2d(kernel_size=2, stride=2, padding=0, dilation=1, ceil_mode=False)
    (3): Conv2d(64, 128, kernel_size=(3, 3), stride=(1, 1), padding=(1, 1))
    (4): ReLU(inplace)
    (5): MaxPool2d(kernel_size=2, stride=2, padding=0, dilation=1, ceil_mode=False)
    (6): Conv2d(128, 256, kernel_size=(3, 3), stride=(1, 1), padding=(1, 1))
    (7): ReLU(inplace)
    (8): Conv2d(256, 256, kernel_size=(3, 3), stride=(1, 1), padding=(1, 1))
    (9): ReLU(inplace)
    (10): MaxPool2d(kernel_size=2, stride=2, padding=0, dilation=1, ceil_mode=False)
    (11): Conv2d(256, 512, kernel_size=(3, 3), stride=(1, 1), padding=(1, 1))
    (12): ReLU(inplace)
    (13): Conv2d(512, 512, kernel_size=(3, 3), stride=(1, 1), padding=(1, 1))
    (14): ReLU(inplace)
    (15): MaxPool2d(kernel_size=2, stride=2, padding=0, dilation=1, ceil_mode=False)
    (16): Conv2d(512, 512, kernel_size=(3, 3), stride=(1, 1), padding=(1, 1))
    (17): ReLU(inplace)
    (18): Conv2d(512, 512, kernel_size=(3, 3), stride=(1, 1), padding=(1, 1))
    (19): ReLU(inplace)
    (20): MaxPool2d(kernel_size=2, stride=2, padding=0, dilation=1, ceil_mode=False)
  )
  (classifier): Sequential(
    (fc1): Linear(in_features=25088, out_features=512, bias=True)
    (relu1): ReLU()
    (dropout1): Dropout(p=0.2)
    (fc2): Linear(in_features=512, out_features=256, bias=True)
    (relu2): ReLU()
    (dropout2): Dropout(p=0.2)
    (fc3): Linear(in_features=256, out_features=102, bias=True)
    (output): LogSoftmax()
  )
)</pre>
</div>

</div>

</div>
</div>

</div>
<div class="cell border-box-sizing code_cell rendered">
<div class="input">
<div class="prompt input_prompt">In&nbsp;[11]:</div>
<div class="inner_cell">
    <div class="input_area">
<div class=" highlight hl-ipython3"><pre><span></span><span class="c1"># A function for the validation pass</span>
…
